Final_model_SP123.pth (safetensors, 797870 bytes, 11 tensors)

linear1.weight f4 [200, 10]
000000 1c 5d c7 bd 2d 24 b8 bd 28 40 5c be 7f 5b 8c 3b
       -0.09734556 -0.08991275 -0.21508849 0.004283368
000010 3e 79 9a 3e ec 9c 4a be ea eb 8b be f5 a7 96 be
       0.30170625 -0.19786423 -0.27328426 -0.29425016
000020 6b 2e 30 3e e3 df 78 3e 64 12 42 3e b0 55 86 be
       0.17205207 0.24304156 0.18952328 -0.2623725
000030 d9 e3 a1 be 5b 87 2a bc 07 4b a8 bd 1e b3 a8 3d
       -0.31619146 -0.010408248 -0.08217435 0.08237289
000040 6a 3c b6 3d 02 a5 8f be 14 39 ee 3d ab 6e 33 3e
       0.08898242 -0.28055578 0.116319805 0.17522685
000050 26 12 a1 bd 44 76 5a be c2 7d 96 bd 4d c2 34 be
       -0.0786479 -0.21334177 -0.07348205 -0.17652245
000060 25 a7 ed bd 1f 47 8e be 65 2b 5d 3e 5a 60 51 be
       -0.11604146 -0.27788636 0.21598585 -0.20446911
000070 b3 dc 85 be 58 6c b2 3d 42 6b c1 bd 9f 26 5e be
       -0.26144943 0.08712071 -0.09444286 -0.2169442
000080 f0 95 54 3e 08 65 1c 3e d5 32 b5 3d 87 d8 9f be
       0.20760322 0.15272915 0.08847586 -0.31219885
000090 45 c0 46 be c9 fa 89 3e 1b c8 85 3e 3a d1 69 3e
       -0.19409283 0.26949146 0.2612923 0.2283372
0000a0 5c e3 9b be 10 37 5f 3c 2e c6 a7 3e 76 05 d3 bd
       -0.304469 0.013623968 0.32768387 -0.10303776
0000b0 02 9c 66 be a9 80 97 be 96 fc 92 3e d6 43 96 be
       -0.2252045 -0.29590347 0.28708333 -0.2934863
0000c0 bc e4 18 3e 40 68 70 bd 83 52 17 3e 36 33 f4 3c
       0.14931005 -0.05869317 0.1477757 0.029809576
0000d0 00 e9 ab be 58 15 be bb 02 69 9d 3d 53 1c 33 bd
       -0.33576202 -0.005800884 0.07686044 -0.043728184
0000e0 29 45 95 3c 33 e8 27 be fb 51 36 be e0 d4 53 be
       0.018221455 -0.1639717 -0.1780471 -0.20686674
0000f0 fb 20 48 3e a3 22 0a 3e c7 fa ae bd 3a b2 96 3e
       0.19543831 0.13489775 -0.08543926 0.2943285
000100 6e 34 a2 bd 94 eb 2e 3d 3a d0 d1 bc 09 68 ff 3d
       -0.079201564 0.042705134 -0.025611985 0.12471015
000110 0c 41 3d 3d 6f 0d 6e 3d 34 36 97 3d f6 39 b1 bd
       0.04620461 0.05811828 0.07383385 -0.08653633
000120 72 9c 75 3e ad a5 ba bd dd 58 c9 bc e4 1f 98 3d
       0.2398546 -0.091136314 -0.024578506 0.07427958
000130 3a fc 8f 3e 90 9c 7c be 77 2f 8a be 2d 64 84 be
       0.2812212 -0.24669099 -0.26989338 -0.25857678
000140 d7 de 01 3e e4 f7 7f be 78 a8 8a be 02 b6 8b 3e
       0.12682663 -0.24996907 -0.27081656 0.27287298
000150 b8 31 8f be e1 56 6a 3e a4 d4 7f bd 6a 3f e5 bc
       -0.2796762 0.22884704 -0.06245865 -0.02798434
000160 77 bb f6 3d dc 87 7c 3e d2 c4 12 bd 2e 8e 9f bd
       0.12047475 0.24661201 -0.035832234 -0.077907905
000170 c1 9e 7f 3e 9c 3c 73 be b4 61 b2 3b 53 ce 91 3e
       0.24962904 -0.2375359 0.005443776 0.28477725
000180 bd 33 7f be 8a e9 92 bc 16 37 1c be 38 d7 08 be
       -0.2492208 -0.017933626 -0.15255389 -0.1336335
000190 88 61 9c bd 80 99 85 ba 65 c8 8a 3e 91 f5 42 3e
       -0.0763579 -0.0010192841 0.27106014 0.19038989
0001a0 29 77 84 3e 8e 37 28 3e 39 8f 11 3e e6 34 0d be
       0.25872162 0.16427442 0.14214791 -0.1378971
0001b0 03 f2 5a be 37 25 59 3e f1 3b 47 3e 08 77 80 bd
       -0.21381383 0.21205603 0.1945646 -0.062727034
0001c0 67 47 a9 3d 3e f1 1e be 6a c2 91 be 3d c8 0a be
       0.08265572 -0.15521714 -0.2846864 -0.13552947
0001d0 83 5c 6e be af 2a 55 be 2f 06 32 3e 40 c1 8d be
       -0.23277478 -0.20817064 0.17385171 -0.276865
0001e0 a3 40 3a bd 05 f5 3a be 1c 3b 93 be 0b de 31 be
       -0.0454718 -0.1825753 -0.28756034 -0.17369859
0001f0 69 16 b8 3c a1 8d 14 be ac 30 a7 3d 75 4d 6c bd
       0.022471623 -0.14507152 0.0816358 -0.057691056
000200 97 b5 e4 bd f9 53 a0 be 7d 3d 95 3e fa cc d8 3c
       -0.11167448 -0.31314066 0.29148474 0.026464928
000210 c3 9c a5 3d bf f7 33 be d1 da 79 3d f5 bf c1 3d
       0.080865405 -0.17574976 0.060999695 0.09460441
000220 7a f5 da 3c 04 fb 9c 3d 55 e9 73 3e 2c 0d f5 3d
       0.02672838 0.07665065 0.23819478 0.11965403
000230 5c ea 0b 3e 11 32 d4 bd dc 1c ad be 8d 4c 2e 3e
       0.1366362 -0.10361112 -0.3381108 0.1702139
000240 54 12 2b 3e a8 cf ea bd be 22 63 bd cf e7 45 3e
       0.1670621 -0.114653885 -0.055453055 0.19326709
000250 29 64 94 be 12 3d 01 bd 11 84 b6 bd 03 5a f8 3d
       -0.28982666 -0.03155238 -0.089119084 0.121265434
000260 14 00 1d be 54 aa 8c 3e a0 bc b7 3d 0c 94 91 3e
       -0.15332061 0.274737 0.08971524 0.28433263
000270 26 70 a0 be 19 1c 65 bc b3 c5 06 3e a3 54 f3 3d
       -0.31335562 -0.01398375 0.13161354 0.118813775
000280 ed 5d 7b be d0 6d 9b 3d 06 72 02 bd 28 0f 90 be
       -0.24547549 0.075893044 -0.031847022 -0.28136563
000290 db 57 8d 3e 46 b2 d2 bd e1 05 61 3e 5a 47 fc 3c
       0.2760609 -0.10287909 0.21974899 0.030795742
0002a0 0f 92 85 bd e4 75 69 be df 02 94 3d 51 00 6b 3e
       -0.06521999 -0.22798878 0.0722711 0.2294934
0002b0 0e 0d 8b be 04 a2 ce 3d 16 96 b0 be c9 63 a3 bd
       -0.27158397 0.10089496 -0.34489506 -0.07978017
0002c0 7e 85 03 3c 24 ad 1b 3e 36 29 19 3d 26 0e 37 be
       0.0080274325 0.15202767 0.037392817 -0.17876491
0002d0 6f f2 fe 3a 77 7a 5c be b0 8f 0a be bd 12 55 3d
       0.0019450913 -0.21531092 -0.13531375 0.052019823
0002e0 96 87 80 bd d3 cc 32 be 1a fa 16 3e 4e 35 2c 3e
       -0.06275861 -0.17460947 0.14743844 0.16817209
0002f0 19 47 40 3d fa 57 55 be 25 82 62 be f8 ab 86 3e
       0.046942804 -0.20834342 -0.22119959 0.26303077
000300 9c 04 78 be 4e e4 f2 bd bc 19 9b be 47 ef 78 3e
       -0.24220508 -0.11859952 -0.3029307 0.24310027
000310 59 89 8d be 2b 90 ea bd 76 76 b5 bc 6b 62 95 be
       -0.2764385 -0.11453279 -0.022151213 -0.2917665
000320 25 66 7c 3d 16 7d 6c be ca bc ad 3e a7 13 5e 3e
       0.06162085 -0.23094591 0.33933097 0.21687184
000330 e1 b6 cf bd d1 13 70 be 15 83 3c be f3 01 a3 3e
       -0.10142303 -0.2344506 -0.18409379 0.31837425
000340 55 95 d2 3d 42 5b 9e 3e cb b4 65 3e a6 0c 45 be
       0.10282389 0.30929 0.22432248 -0.19243106
000350 e9 42 93 3d 5e a4 af be a4 87 1e be 68 c1 4c bd
       0.071904965 -0.3430509 -0.1548143 -0.049989134
000360 20 5a 94 3d e1 86 22 3e 59 1d 8d bc a3 84 85 3e
       0.072437525 0.15871765 -0.017225908 0.26077756
000370 58 e4 75 3e 15 ce e3 bd 51 5f d8 bc a4 a3 9f 3e
       0.24012887 -0.111232914 -0.026412638 0.31179535
000380 c4 9a 29 3e 13 cd 7b bd 8d 7b 86 3e 60 8a c7 bd
       0.16562945 -0.06147487 0.26266137 -0.0974319
000390 b2 07 1c be fd d9 3a 3e 6c 2b 40 be 5f 9b e8 3d
       -0.1523731 0.18247218 -0.18766564 0.1135776
0003a0 28 ea f8 3d 4d 40 a2 be e1 ac 10 be dc d4 98 3e
       0.12154037 -0.31689683 -0.14128448 0.298499
0003b0 5e 99 8e bd 95 19 1b be 01 9b 58 3e f6 1f 84 3e
       -0.06962846 -0.15146478 0.2115288 0.25805634
0003c0 51 08 93 be d0 03 c2 bd 44 9a 68 3e ba ff c7 bc
       -0.28717282 -0.094733834 0.22715098 -0.024413932
0003d0 ae f6 da bc ad 37 95 be 61 9d 74 be 2f 4c 85 be
       -0.026728954 -0.2914404 -0.2388816 -0.26034686
0003e0 32 6a 54 be 93 0e e9 3c de 54 9a bd 75 0e 03 bd
       -0.20743635 0.028449332 -0.075357184 -0.03199621
0003f0 5e c2 76 3e 2d d1 9d bd 87 54 8b be 68 4d 4b 3d
       0.24097583 -0.07705913 -0.27212927 0.049634367

linear1.bias f4 [200]
000000 d4 bc 74 be 8a 7e 9e be 3b 7c 50 3e c2 cc ba bc
       -0.23900157 -0.30955917 0.2035989 -0.022802714
000010 fa fb 70 be e1 5f 88 3e 26 b3 a4 be 0b c4 06 be
       -0.23533621 0.2663565 -0.3216793 -0.13160722
000020 ca c8 2d be 8e e9 88 be 32 6d 5c bd 07 96 54 be
       -0.16971126 -0.26740688 -0.053815074 -0.20760356
000030 6a 05 86 3e 61 ec 69 be bb 78 8c 3e 88 2b 97 be
       0.26176006 -0.22844078 0.2743586 -0.295254
000040 85 61 a2 3e dc ea 96 3e 7b 84 a5 bd d2 5a ac be
       0.31715026 0.29476058 -0.08081909 -0.3366304
000050 d5 f1 5c 3e 62 f9 7c 3e ba 37 1e 3e 94 2b 9e be
       0.21576627 0.24704507 0.15450945 -0.30892622
000060 09 57 7c be cf 5e 8e be ed 1c 95 3e 07 cd 94 3d
       -0.24642576 -0.27806708 0.2912363 0.07265668
000070 1a 93 94 be 98 1f 45 be 6d a6 a8 3d 99 06 e7 bd
       -0.2901848 -0.19250333 0.08234868 -0.11280555
000080 39 ba a2 be d7 1d 3e 3e 97 40 c1 3d 05 9d 1e 3d
       -0.31782702 0.1856607 0.09436148 0.038723964
000090 c3 32 2d 3e 55 b5 10 be 63 bc 1c 3e 1d 89 97 be
       0.16913895 -0.14131673 0.15306239 -0.29596797
0000a0 f4 89 d3 3d f4 c2 c2 bb 09 5b 67 3d 80 6f eb 3b
       0.10329047 -0.0059436504 0.056483302 0.0071849227
0000b0 78 6b 7f 3e d3 c2 ae 3e f4 d2 a5 3c 61 18 db bd
       0.2494334 0.34133014 0.020242192 -0.10698009
0000c0 1e 8d 6b 3d 56 3a 83 be c5 2c 82 3e fe 7e 4e 3e
       0.057507627 -0.25630444 0.2542478 0.20165631
0000d0 b6 cd c2 bc 8b 96 f6 bb 86 b1 fc 3d 0c d4 33 be
       -0.023779731 -0.0075252703 0.123385474 -0.17561358
0000e0 c6 bc fb bc 79 53 2a 3e bd 2f f7 bd b2 34 60 3e
       -0.030729663 0.16633405 -0.12069652 0.21895102
0000f0 6f 39 8b 3e 06 b9 a5 3e 62 7c 55 bd 35 af 56 be
       0.27192256 0.32367724 -0.052120574 -0.20965274
000100 a0 6f 53 be bc b3 34 bd 97 38 12 3e 0f 33 88 be
       -0.2064805 -0.04411672 0.142794 -0.26601455
000110 4e 76 77 be 64 55 3d 3e 6d 8e 65 be fb 7e 80 3e
       -0.24166223 0.18489605 -0.22417612 0.25096878
000120 e3 45 1e be 16 3f a5 be ef a7 05 3c de 2e 02 3e
       -0.15456347 -0.32274693 0.008157714 0.12713191
000130 9f 4f 92 3e b0 75 a6 be db 62 9b bd 55 a3 4f be
       0.2857637 -0.32511663 -0.075872146 -0.2027715
000140 13 4b a7 3e 29 59 fb 3d 6a 1e 8e be 03 02 ab 3b
       0.32674465 0.12272865 -0.2775758 0.0052187457
000150 5f 13 86 be e6 6a aa bd 44 4a 27 be c5 08 0c 3e
       -0.26186654 -0.083211705 -0.16336924 0.1367522
000160 6a ae fb 3d 69 75 96 3e 37 55 ae 3d d8 62 1e 3c
       0.12289126 0.29386452 0.08512347 0.009667121
000170 8d 89 24 3e 23 e9 b4 3e c3 97 66 be 09 fe 6d 3e
       0.16068096 0.3533412 -0.2251883 0.23241438
000180 b4 1b a4 be 28 3b d0 3c 61 67 d1 3c 23 da 03 be
       -0.32052386 0.025418833 0.02556199 -0.12876181
000190 62 fb 84 be e3 ef 5d be 7a 2c 62 3e 96 7a 18 ba
       -0.2597304 -0.21673541 0.22087279 -0.00058166066
0001a0 01 14 06 3e 84 a4 67 be 5a c1 d4 3d d5 69 22 be
       0.13093568 -0.22621351 0.103884414 -0.15860684
0001b0 35 a1 3a 3e 48 de ad bd 26 7d 82 be b8 e8 34 be
       0.18225558 -0.084896624 -0.25486106 -0.176669
0001c0 80 f3 98 3e 19 bd 26 3e 29 d6 3b bd 42 98 a5 be
       0.29873276 0.16283073 -0.045858536 -0.32342726
0001d0 50 c0 1a 3e dd 84 76 be 55 32 96 be a1 89 ab bd
       0.15112424 -0.24074121 -0.29335275 -0.0837586
0001e0 1d fd e9 3d 40 9a 8a be d8 83 8d 3e cf 96 0f 3e
       0.11425231 -0.27070808 0.2763965 0.14022373
0001f0 c3 1d aa 3e 14 ba 69 be 8d d4 b1 3e 58 85 15 be
       0.3322583 -0.2282489 0.34732476 -0.14601648
000200 c0 b1 c7 bd 45 fa 11 bd c1 6e f0 3d 2a 3a 16 3e
       -0.097507 -0.035639066 0.11739875 0.14670625
000210 0b ef 9c 3c 3c 8a 52 be c4 75 59 be 28 3c 2a 3e
       0.019156953 -0.20560545 -0.2123633 0.1662451
000220 da 42 8a be 1b ca 28 bd f6 5c 6b be 37 5f 88 be
       -0.2700413 -0.041208368 -0.2298468 -0.26635143
000230 aa ae e6 3d 4e 7d c4 bd eb b8 8d 3e 62 40 ad 3d
       0.11263783 -0.095942125 0.27680144 0.08459546
000240 b4 96 3c 3e cf 13 f4 bd 0f 87 7f be b1 a5 82 3d
       0.18416864 -0.11917841 -0.24953865 0.063792594
000250 a0 87 0d be ab 53 1f 3e 02 7e a0 3d c1 02 8a 3e
       -0.13821268 0.1555926 0.07836534 0.26955226
000260 a8 b4 20 be 74 27 46 be c5 65 48 3b 71 48 2f 3e
       -0.15693915 -0.19350988 0.0030578237 0.17117478
000270 a0 e6 59 be 01 81 93 3e b5 59 27 be f6 ae 2f 3e
       -0.21279383 0.2880936 -0.16342814 0.17156586
000280 18 51 d6 bd 2f 89 e5 bd b6 d8 7d be d8 3b 8a be
       -0.10464686 -0.11207806 -0.247897 -0.26998782
000290 3d 90 0b be 51 70 70 3e 08 26 1d 3d 6f 05 ec bd
       -0.13629241 0.23480345 0.038366348 -0.11524474
0002a0 7f f9 95 be be 67 63 be fa 46 04 3e 8a 68 9d bd
       -0.29291913 -0.22207543 0.129177 -0.07685955
0002b0 eb b5 a0 3e d2 04 a4 3b 82 8f 18 be 26 5f 47 3e
       0.31388792 0.0050054574 -0.14898494 0.1946989
0002c0 b4 00 08 3e 5f d4 1f 3e bd 31 7d 3d dc c9 20 3e
       0.13281518 0.15608357 0.061815012 0.15702003
0002d0 45 d6 91 3e 06 c2 44 3d d8 b7 2e be b9 66 90 3d
       0.28483787 0.048036598 -0.17062318 0.07050843
0002e0 4a d3 5e 3e 2d f5 0f be 2e e6 92 be 8a 13 71 be
       0.21760288 -0.14058371 -0.28691238 -0.2354261
0002f0 3f db fe 3d a8 b8 84 be 57 a1 bb 3e 98 cd ad 3e
       0.124441616 -0.25922132 0.3664653 0.33945918
000300 7d e5 bb 3d 85 bf 67 3e fb 8a 50 be 92 6d 3a be
       0.09174631 0.22631653 -0.20365517 -0.1820586
000310 54 cf 63 3e 04 e5 a6 be 0c ec 83 3e b3 72 b5 3e
       0.22247058 -0.325966 0.25766027 0.3543907

linear2.weight f4 [200, 200]
000000 b0 41 92 bb 96 08 fe 3c 08 47 69 bd ad 87 e2 bc
       -0.004463397 0.031009953 -0.056952506 -0.027652586
000010 fa e8 9e 3c 71 a9 51 3d 0b 25 a4 bd f8 18 4f 3c
       0.019398201 0.051186983 -0.08014878 0.01264023
000020 08 cd 30 3d 93 9c 00 3d 4c 5d ca 3a 1d b8 79 bd
       0.043164283 0.03139932 0.0015439182 -0.0609666
000030 4d b3 50 bb 41 f7 fc 3c 45 80 17 bd 26 f2 dd 3c
       -0.0031845153 0.030879619 -0.03698756 0.027093004
000040 c5 84 a9 bd 28 96 9e bd ff 84 b1 bc 22 26 73 bc
       -0.08277277 -0.07743484 -0.021669863 -0.014840635
000050 d7 96 7b bb c2 e5 98 bd 15 1a d4 3c 3a ee 2d bd
       -0.0038389468 -0.07465698 0.025891343 -0.04246352
000060 5b 62 8c bd 31 95 91 3c 09 34 6c bb 1f dc a4 3c
       -0.06854697 0.017771335 -0.0036041758 0.020124493
000070 79 a1 a7 3a ca c9 95 bc 46 7e 9b bc d8 83 4b 3d
       0.0012789211 -0.018284697 -0.01898111 0.049686283
000080 bc ee 16 bd 6e cb ac bd 1a 35 7d bd 9a 7b 37 bd
       -0.03684877 -0.08437239 -0.06181822 -0.04479561
000090 0d b3 9f bd b9 26 d5 bc 43 02 98 bd 19 43 a0 bd
       -0.07797823 -0.026019441 -0.074223064 -0.07825298
0000a0 44 75 4e 3d c4 9e ee 3c 00 2b f8 bc 99 b4 ac bd
       0.050404802 0.02912844 -0.030293941 -0.08432884
0000b0 c7 12 84 3c be c4 7e bd 38 a0 27 3a f4 58 02 bd
       0.016122235 -0.062199347 0.0006394419 -0.031823114
0000c0 97 cf 92 bc af 33 a4 bd c5 d3 9f bc ea 87 0f bd
       -0.017921252 -0.0801767 -0.01951016 -0.035041727
0000d0 1b b2 31 bd 58 ec 8f bd 2d 29 44 bd 27 25 9f bd
       -0.043382745 -0.07027501 -0.04789083 -0.07770758
0000e0 10 6f 7d 3b 9e 00 fb 3c ec f0 39 3d 6a b8 95 bd
       0.0038670935 0.030639943 0.045395777 -0.07310565
0000f0 26 43 9b 3c c0 a4 55 3d d9 be 15 3c 7d 41 9c bd
       0.018952917 0.05215907 0.00913974 -0.076296784
000100 6d 52 4f 3d 67 35 d9 3c 46 e8 4c bc c0 bd 13 bc
       0.050615717 0.026514722 -0.01250655 -0.009017408
000110 be e2 fd 3c e0 d3 59 3c 99 a0 4e bd 38 dc e7 bc
       0.030991908 0.013295144 -0.050446127 -0.02830325
000120 16 f1 0f bd 28 3f 38 3b 02 29 c6 3c cc ca 6d bd
       -0.035142027 0.0028113816 0.024189476 -0.05805473
000130 80 9d 9b bd 94 57 85 bd 4b 7d a3 bd b1 6a 67 bd
       -0.075984 -0.06510845 -0.07982882 -0.056498233
000140 bf 55 73 bd 04 fb a6 bb 5b 34 8d bd b9 91 92 3c
       -0.059407946 -0.0050958414 -0.06894752 0.017891752
000150 bb 14 ca bb 56 41 8a bb 13 6d 1b 3d 19 8b d0 bc
       -0.006167022 -0.0042192144 0.03794582 -0.025456952
000160 7f 29 04 bd 86 84 23 3d 9e 61 43 bd 69 ff d9 3c
       -0.032266136 0.039921306 -0.047700517 0.026611047
000170 2f f7 ab bc a8 ee 6f 3c 89 76 08 bd 15 0a a2 bd
       -0.02099189 0.014644302 -0.03331617 -0.07912079
000180 27 b5 8a bb f9 8f 0a bd 95 a1 0d 3d 36 ed 9e bd
       -0.004233021 -0.03382871 0.034577925 -0.07760088
000190 de 18 80 bd c9 43 9b 3c a3 76 67 bd 74 95 a3 bd
       -0.06254743 0.01895322 -0.056509625 -0.0798749
0001a0 6c e7 7e bd 97 86 79 bd 2c 97 04 3c e5 a8 9f bc
       -0.06223242 -0.06091937 0.008092683 -0.019489715
0001b0 20 f6 44 3d 4e 9c e6 3c a0 12 37 bd c9 7b 89 bb
       0.048086286 0.028150704 -0.044695497 -0.0041956645
0001c0 2d ba 48 3d 3a 08 a5 3c 49 35 49 3d 39 c5 19 bd
       0.049005676 0.020145524 0.049123082 -0.0375416
0001d0 c4 e7 35 3d 29 ad 7c bd cc d3 72 3c 45 4e 85 3c
       0.044410482 -0.061688576 0.014821004 0.016272673
0001e0 c0 00 14 3d 93 df 6c bc 05 da 1b bd 2b 6e 96 3c
       0.036133528 -0.014457601 -0.038049717 0.018363079
0001f0 c3 92 3d bd b9 5d 96 bd ea 07 5a bd 94 e5 3d bd
       -0.04628254 -0.07342095 -0.053230204 -0.04636152
000200 44 c0 38 3d 43 c5 a7 bd 21 67 b2 b9 e4 17 89 bc
       0.045105234 -0.081919216 -0.00034027643 -0.016735025
000210 97 13 aa bd 47 ff 0c 3c 3d 5e 97 bd e4 82 96 bc
       -0.08304518 0.008605785 -0.073910214 -0.01837296
000220 f0 3d 5a 3d 20 da 5d 3c c6 98 a2 bd e6 88 52 bd
       0.053281724 0.013540775 -0.079392955 -0.051400088
000230 4f 83 5d 3c 17 74 9c 3c f5 50 d6 3c 34 d3 3f bd
       0.013520076 0.019098325 0.02616165 -0.04683228
000240 ab 39 42 3d 36 64 9d bd 6a 4c 01 bd ee f1 cb bc
       0.047418278 -0.07685129 -0.031567015 -0.024895635
000250 b7 28 09 3d 0f 46 92 3c ed 86 b3 bd 5c 73 00 bd
       0.033486094 0.017855672 -0.087659694 -0.031360015
000260 df 10 b8 3c db 9a ed bc 00 2d 9f bd 86 55 75 bd
       0.022468982 -0.029004505 -0.07772255 -0.059896015
000270 fe 80 56 3d c7 0c 2f bd d1 7f 90 bc 74 66 51 bd
       0.05236911 -0.042736795 -0.017639073 -0.051123098
000280 47 75 31 3d 7c 8a d0 bc cc 45 27 3d 8e 55 ab bc
       0.043324735 -0.02545666 0.040838048 -0.02091482
000290 b3 85 18 bd 28 f6 2d 3d 97 49 ab bd 20 4e 8e 3b
       -0.03723688 0.04247108 -0.083636455 0.0043428093
0002a0 83 02 35 bd 73 c2 2c 3d 57 e7 3f 3c 6c b4 e0 bb
       -0.04419185 0.04217763 0.011712871 -0.0068574455
0002b0 d1 88 5c bd d7 32 74 bd af a9 a4 bd 4d 9d a0 bd
       -0.053841416 -0.059618797 -0.08040177 -0.07842503
0002c0 38 04 8e 3b ad 18 10 bd d3 b0 9b bc 33 78 2b 3d
       0.004333999 -0.035179783 -0.019005215 0.041862678
0002d0 a1 2a 62 bd ff e6 5b 3c d8 12 30 bd 3a ac a1 bd
       -0.055216435 0.013421773 -0.04298672 -0.07894178
0002e0 f3 c7 22 bd ab e4 a5 bd 10 59 ff 3b 87 4c f5 bc
       -0.039741468 -0.081002556 0.0077925995 -0.029943718
0002f0 d4 92 5f bc 2f 87 43 3c f0 5c e6 bc 48 5b 98 bd
       -0.013645846 0.011934086 -0.028120488 -0.074392855
000300 81 d6 61 bd 7b d8 88 3c 24 8f c8 bb e4 a0 42 ba
       -0.055136207 0.016704788 -0.0061205793 -0.0007424487
000310 f5 31 01 3d 84 d6 a5 bd 3d 5a 5d bd c1 67 85 3c
       0.031541783 -0.08097556 -0.054041136 0.016284825
000320 34 96 cf bc f4 e1 21 3d d1 05 67 bb 24 6d 46 3c
       -0.025340177 0.039522126 -0.003525127 0.012110982
000330 b2 db 12 bd 7f 71 b2 bd 4c 04 e6 3c d7 d9 49 3d
       -0.03585405 -0.08713054 0.02807822 0.049280014
000340 d1 ca e9 bc 4f 74 0b 3d bf e0 8e bc 72 d7 10 3d
       -0.028539093 0.034046467 -0.017441152 0.035361715
000350 74 14 6e 3c 5e 99 11 3d 41 01 e0 bc 08 b6 9a bd
       0.014531244 0.035546653 -0.027344348 -0.07554251
000360 7b 46 a5 bc 54 f5 27 bd 23 96 f8 bb d2 42 31 3d
       -0.02017521 -0.041005448 -0.007586257 0.043276615
000370 dd 55 0d 3d d1 5d ac bd e0 4f fa bb 53 d6 d4 3c
       0.034505714 -0.084163316 -0.0076389164 0.025981104
000380 6f 59 55 bd 6f 5e 3c 3d 8d 74 c6 bc 7c d3 fa 3b
       -0.052087244 0.045988496 -0.024225498 0.0076546054
000390 3d fd 13 bd 70 85 50 39 49 8a a8 bc 78 e1 fb 3a
       -0.03613018 0.00019886135 -0.020573752 0.0019216975
0003a0 33 ea 1c bb a5 65 f4 3c 77 4c 6a bd 8c d4 78 bc
       -0.0023943305 0.029833624 -0.05720183 -0.015187394
0003b0 97 a0 4a bd 92 a8 75 bc 50 e6 31 3d f2 7d cd 3c
       -0.049469557 -0.014993804 0.043432534 0.02508447
0003c0 45 4b 58 3c e9 aa f7 3c f2 38 f9 bc 31 b5 14 3d
       0.013201539 0.030232864 -0.030422661 0.03630561
0003d0 d6 05 ac bd 27 03 87 bc ae 50 9f 3c 2d 3a a2 bd
       -0.083995506 -0.016480995 0.01944765 -0.079212524
0003e0 1b 6c 86 bd 69 78 9c 3c f0 d5 39 bc d6 f1 28 bd
       -0.06563588 0.019100385 -0.011342511 -0.041246258
0003f0 90 34 2b bd 35 6f 57 bd 9c e9 1b 3d 77 7c bd 3c
       -0.041798174 -0.05259629 0.038064584 0.023130639

linear2.bias f4 [200]
000000 c9 99 25 bd ee 53 aa bd de ad b8 bd 55 93 5c bd
       -0.040429864 -0.083167896 -0.090175375 -0.053851444
000010 dc e5 b2 bc c2 40 a4 3d eb ea 09 bd e4 85 aa 3c
       -0.021838121 0.08020164 -0.0336713 0.020815797
000020 36 83 ad bd 72 8f 58 bd 85 90 9f 3c 54 59 11 bc
       -0.08472292 -0.052871175 0.019478092 -0.008871395
000030 6c 74 db 3d 92 89 3b 3d f0 18 37 3d 64 a5 e3 3d
       0.10715565 0.045785494 0.044701517 0.1111553
000040 8e 44 f9 bc 78 00 4f bd 24 c3 e3 3b bd 75 2c bd
       -0.030428197 -0.050537556 0.006950753 -0.04210447
000050 88 4d 35 3d 58 37 86 3d e0 15 36 bd 7a da f8 bc
       0.044263393 0.06553525 -0.044454455 -0.030377615
000060 49 2e 3e bc 07 5a 12 3c d3 e9 b2 3d 04 e3 a9 bd
       -0.011607715 0.008932597 0.08736005 -0.08295253
000070 63 ee a4 3d 1f ce d1 3c b0 d9 67 3d 9f 52 07 3e
       0.08053281 0.025610982 0.056604087 0.13215111
000080 99 b7 53 3c 03 1a 65 bd f8 b8 c4 bd 92 6c 44 3d
       0.012922191 -0.05593301 -0.096055925 0.047955103
000090 2a f9 b2 bd 1b 01 c4 3c 78 32 bf 3d d5 5a 89 3c
       -0.087389305 0.023926308 0.09335798 0.016766945
0000a0 cd 16 23 3b c1 09 b8 bd d9 a2 24 bd 45 9c 51 bc
       0.0024885416 -0.089862354 -0.040194366 -0.012793605
0000b0 cc 6b b9 3d 27 cd ee 3c e1 6f cb 3c 3f d0 dd bc
       0.09053764 0.029150559 0.024833621 -0.027076839
0000c0 df 94 ca 3b 0e 81 04 3d 32 12 cc 3b 77 f3 bc bd
       0.0061822976 0.03234964 0.006227755 -0.09226125
0000d0 c3 b9 f0 3c 6f 32 fa bc 3f 74 24 3d 0c c0 17 bd
       0.029385453 -0.030541627 0.040149923 -0.037048385
0000e0 e1 5b 17 3d 9a da 90 bc f5 97 43 3d 71 d5 c7 3d
       0.036952857 -0.017682362 0.04775234 0.097575076
0000f0 8e 67 61 bd 8d f3 2a bd 41 56 02 bd 3e 94 a2 bd
       -0.055030398 -0.041736174 -0.03182054 -0.07938431
000100 45 c4 94 bd 80 bc 8f 3d ed 2e 00 3d d1 2f 21 bc
       -0.07263998 0.070183754 0.031294752 -0.0098380605
000110 2e 16 98 bd de 65 ba bd 12 c7 a4 3d 77 9f 9b 3d
       -0.074261054 -0.09101461 0.08045782 0.07598775
000120 1f 32 ad bd 7d 2a 93 bc dc b6 1d 3d ca d7 27 bd
       -0.084568255 -0.017964596 0.038504466 -0.040977277
000130 f2 4e 6b 3c 41 91 96 bd 21 24 70 bd 82 b2 d2 3c
       0.014362084 -0.07351924 -0.058628205 0.025719885
000140 2c b3 93 bd 00 f0 d9 3c 9b 4e 43 bc f5 ac 5c bd
       -0.07211909 0.026603699 -0.0119205965 -0.053875882
000150 59 2f 17 3e 19 e0 22 3c 4b a4 9b bd 8e bc 0a bd
       0.14764155 0.009941124 -0.07599696 -0.033871226
000160 5b 1a 1a bb d3 03 a5 3c 5c 71 4d 3b d0 53 93 bc
       -0.0023514244 0.020143425 0.0031348085 -0.0179843
000170 cd 3c a7 bd c7 b0 09 3c d7 0b 80 3d 22 43 a6 3d
       -0.08165894 0.008403963 0.06252258 0.08118273
000180 02 bc 0f 3d 3a 6a a0 3c db 2b a6 3c f8 0e 5b bd
       0.035091408 0.019581903 0.020284584 -0.053481072
000190 95 22 bc bd ae e9 82 3d 2e 88 01 3e 4c 2e 96 bd
       -0.091862835 0.06392227 0.12649605 -0.07333049
0001a0 0d 4e 03 3d 98 e7 01 bd 1f 9e 45 bc 42 05 41 bc
       0.032056857 -0.031715006 -0.012061625 -0.011781039
0001b0 0d ca a3 3d c7 e0 f3 bc 46 a1 24 bd c3 38 4c bc
       0.079975225 -0.029770268 -0.040192865 -0.012464705
0001c0 4f 00 94 3c f4 62 2c bc 6a 92 a5 bd 4d 26 b5 bd
       0.018066553 -0.010521639 -0.08084567 -0.08845196
0001d0 1e ed 14 3d 12 f8 0f bd b2 57 75 3d 29 11 68 bd
       0.036358945 -0.035148688 0.059898086 -0.05665699
0001e0 b5 d1 0c bc 95 c1 ad bd 3c bb 45 3c 61 a3 fa 3c
       -0.00859492 -0.084841885 0.012068566 0.030595483
0001f0 67 ee a0 bc 2e 7b a3 bb d7 47 30 bd 28 b2 4f 3c
       -0.01964493 -0.0049890494 -0.04303726 0.012676753
000200 4f f5 69 bd 4e 88 8b bd 7a a2 83 bd 09 51 fa bc
       -0.05711871 -0.068131074 -0.06427474 -0.030556219
000210 6e 5b ff ba 3c ce 7b 3c 64 db 7d bb 68 d3 dd 3c
       -0.0019482204 0.015368994 -0.0038735503 0.027078345
000220 bb 9c 92 3d 5d db 0c 3e 20 05 6b 3d b0 79 37 3d
       0.071588 0.13755555 0.057377934 0.044793785
000230 c8 88 78 3d 21 a0 3f bd a3 f3 4a bc 87 2c 90 3c
       0.06067732 -0.04678357 -0.012387189 0.017599357
000240 f9 2c 2a bc 2f 07 89 bd 7c 9e a3 bd a7 21 82 bd
       -0.010386699 -0.06690823 -0.07989213 -0.06354075
000250 33 74 54 bd 48 36 93 bd f7 94 b6 bc 1d 3f 55 bc
       -0.05186863 -0.07188088 -0.022287829 -0.013015536
000260 8b 56 41 bd 4a 5b 50 3d 58 2a 10 bc c3 7c 27 bd
       -0.047201674 0.05086831 -0.008799158 -0.040890466
000270 75 9c 47 3c 37 ff d8 3c 53 a3 8c 3c 20 a5 c2 bc
       0.012183298 0.026488883 0.017167723 -0.023760378
000280 83 74 e8 3c 12 54 45 3d 16 a5 2f bd 87 4d 23 3d
       0.02837587 0.04817588 -0.042882048 0.039868858
000290 e4 c5 8f bd 99 26 82 bd 9b 24 be bc 8d 38 18 bd
       -0.070201665 -0.06355018 -0.023210814 -0.037163306
0002a0 ae 82 a8 ba 24 eb 82 bd 6d 58 50 bc 8e f3 b1 bd
       -0.0012856328 -0.06392506 -0.012716395 -0.086890325
0002b0 7d 4d fc bb 94 3b 54 bb 5b 6a a7 bc 24 64 c2 bc
       -0.007699667 -0.0032384144 -0.020436456 -0.023729391
0002c0 ab e4 a3 bd 8c d1 6c bd 6e 84 cf bc 51 0e ee bc
       -0.08002599 -0.057817027 -0.025331702 -0.029059561
0002d0 f1 4c 0f bd 52 93 02 bb 59 47 16 3e 74 b9 81 bc
       -0.034985486 -0.0019924236 0.14675654 -0.015835501
0002e0 74 29 8a bd 6e 71 80 3d 79 80 b0 3d b9 7a 45 bd
       -0.06746188 0.06271635 0.08618254 -0.04821274
0002f0 85 dd 8f bd c6 ac 57 3c 6b af 66 bd 9f be 30 bd
       -0.07024673 0.013163751 -0.056319635 -0.04315054
000300 97 da 5d bd e2 fc 3d bd 25 ee ad bd 0a 9a 7f bd
       -0.05416354 -0.046383746 -0.08492688 -0.062402762
000310 14 0b f5 bc 63 a9 6a bc 40 0a 83 3d ea 66 c6 bc
       -0.029912509 -0.0143226115 0.063984394 -0.024218995

linear3.weight f4 [150, 200]
000000 2b 64 a9 bd f6 5b 0a bc da 66 c6 bd f3 85 a4 bd
       -0.08271059 -0.008444777 -0.09687586 -0.08033361
000010 5c c8 00 3d 98 ee 31 bd 85 e6 b7 bc a3 f8 52 bd
       0.031441078 -0.04344043 -0.022448787 -0.05150665
000020 d0 21 ac 3c d5 b3 9f bd c4 e6 c7 bd c7 66 c3 bd
       0.021012217 -0.07797972 -0.09760812 -0.095410876
000030 a5 f0 25 3d 4f fd 77 3c 66 b7 94 bd ad 04 18 bd
       0.0405127 0.015136077 -0.07261543 -0.037113834
000040 00 39 51 3b df 5b dd bc be 39 52 bd 5c bf bb bd
       0.0031924844 -0.027021347 -0.0513246 -0.09167358
000050 bc 8b e8 3c 73 44 ab 3a 1b a2 a5 3c 13 e5 22 b9
       0.028386943 0.0013066664 0.0202189 -0.0001553486
000060 40 9d 62 bd c7 e0 ac 3d 57 c2 85 3d 28 23 b6 bd
       -0.055325747 0.084413104 0.06531208 -0.08893424
000070 7f ab 2b bd e2 55 c5 bc e3 c9 9b bd 1e 5a 15 bd
       -0.0419116 -0.024088804 -0.07606866 -0.036462896
000080 86 31 86 bd 7c 5a 92 bd 42 15 c7 3c 36 da 85 bd
       -0.065524146 -0.07146165 0.024302129 -0.06535761
000090 9b 4a be bc 01 20 70 bd c6 64 50 3a 20 bb bf bc
       -0.023228934 -0.05862427 0.0007949587 -0.023404658
0000a0 5d 5f 82 bd ba ba f1 bb e5 51 dc bc 8b e7 da bc
       -0.06365845 -0.007376996 -0.02689452 -0.026721736
0000b0 d9 02 30 3d 29 51 0c bb 70 36 1c bd df b1 82 bb
       0.042971466 -0.002141068 -0.038137853 -0.003988489
0000c0 8e 3d ba 3c b9 1f 34 bd 9e d0 84 bd 2f 09 92 bc
       0.02273443 -0.043975566 -0.06485103 -0.017826645
0000d0 20 8b 90 bc 03 fe a0 bd d4 3b b7 bb a4 b8 1c 3c
       -0.017644465 -0.07860949 -0.005591849 0.009565506
0000e0 4d 92 32 bd b9 fe 5f bc 43 8b 77 3d 0e 38 b5 bc
       -0.043596555 -0.01367157 0.060435545 -0.022121456
0000f0 33 54 95 bd 74 18 d6 3c 6b 4b ad bd 94 31 49 bd
       -0.0729145 0.026134707 -0.084616505 -0.049119547
000100 a1 5f bc bd f8 95 b1 bc 2d ac 10 bd 89 5b 73 3c
       -0.09197927 -0.021677956 -0.03532045 0.014853367
000110 81 1c b5 bd de 33 9c 3c 41 b4 d5 bd 6a d0 95 bd
       -0.08843327 0.019067701 -0.10434771 -0.073151425
000120 66 39 93 bd 1b 3b 98 bd 6b 07 67 bd d4 69 a8 3c
       -0.07188682 -0.074331485 -0.05640356 0.020558275
000130 ec 46 0d bd 08 34 f4 bc 7c ca cf 3c ab 98 07 3d
       -0.034491464 -0.029809967 0.025365107 0.03310458
000140 c2 4e 8a 3c 83 45 96 bd 21 fe 90 bd 3c 67 2d bd
       0.016883258 -0.07337477 -0.07079721 -0.04233478
000150 c3 dd c4 3c 5e 92 81 bd 98 ea a1 bd 29 68 33 bd
       0.024031525 -0.063267455 -0.07906073 -0.043800507
000160 43 18 b5 bd 79 eb 01 3d 14 81 cb 3c ca 49 c5 bd
       -0.08842518 0.031718705 0.024841823 -0.09633215
000170 a5 86 89 bc b0 86 ea 3c b6 8f 29 bd d4 17 cb bc
       -0.016787836 0.028628677 -0.04139682 -0.024791636
000180 94 1d a8 3c 5d 2e 04 3d 2b 18 6d bd 4b 35 94 bb
       0.020521916 0.032270778 -0.057884376 -0.0045229546
000190 6d 78 4d bd df 77 9e bd f0 47 c8 3d 19 d8 ed bc
       -0.050163675 -0.07737707 0.09779346 -0.029033707
0001a0 f8 1f 8b 3c f5 13 69 bd 9a 13 36 3d 6e d2 21 bd
       0.016983017 -0.056903798 0.044452287 -0.039507322
0001b0 c4 ab 0b 3e b9 e8 91 bd 0d fd 1a 3d e1 a8 01 bd
       0.13639742 -0.071244664 0.037838984 -0.031655196
0001c0 e6 4f 60 ba 94 d6 32 bc 91 27 97 bd b5 7f 28 bd
       -0.00085568277 -0.010915417 -0.073805936 -0.041137416
0001d0 d8 4c 33 bc bf 86 59 bd 0d 84 b7 3c 10 fa da 3c
       -0.010943614 -0.05310702 0.022401834 0.026730567
0001e0 1a 72 d4 3c d8 e1 93 bd 6c cf 3e 3b 3d 07 5e bb
       0.025933314 -0.07220811 0.0029115332 -0.0033878826
0001f0 4f 6c c8 bc 7c 4d 9b bd e8 aa 27 3c f3 78 86 bd
       -0.024465708 -0.07583138 0.010233618 -0.06566038
000200 e3 a2 68 bd e7 61 c8 bd f5 4d ed bc c3 bc 95 3c
       -0.056795966 -0.097842984 -0.028967837 0.018278485
000210 34 8a 63 bb 91 df 00 bd 1a 3c 00 3c b7 93 ca bb
       -0.0034719827 -0.03146321 0.007826829 -0.0061821598
000220 50 3b 7a bd 5d 81 83 3c 36 d4 80 3a 5a 9a 9b bd
       -0.06109172 0.016052896 0.0009828869 -0.075977996
000230 96 8f bb bd b7 b4 1c bd 22 b3 07 bd 68 4a 2b bd
       -0.09158246 -0.03825828 -0.03312982 -0.041819006
000240 97 c0 b8 bd fa 25 86 bd 9e 66 11 bd e8 ba a2 bd
       -0.090211086 -0.06550212 -0.035498254 -0.07945806
000250 87 af 12 bd 5c 47 32 bc b6 c3 c5 bc 3a 55 2f ba
       -0.035811927 -0.010881271 -0.024141174 -0.000668842
000260 ef d7 5a bb ef b3 a4 bd 5a b5 96 3c 22 41 35 3c
       -0.0033392867 -0.08042132 0.018397022 0.011062892
000270 23 7d 4a bd 6d 81 b1 bd 7e c4 7f bb 9d df 11 bd
       -0.049435746 -0.08667264 -0.003902703 -0.035613645
000280 48 af 0b 3d 16 05 37 3d 54 7f eb bc cc 8f 9b bd
       0.034102708 0.044682585 -0.028747238 -0.075957865
000290 1f cd b1 ba 9b 40 82 3d 86 f5 78 bd bd df ea bc
       -0.0013565159 0.06359979 -0.060781024 -0.02867114
0002a0 92 20 00 3d 28 ed 85 3c 26 e4 70 3b ae e0 e3 3b
       0.03128106 0.016348436 0.003675708 0.006954274
0002b0 6b df a2 bd 62 22 de 3c 3b 2c c5 ba 43 b0 51 3c
       -0.0795277 0.027116004 -0.0015043089 0.012798372
0002c0 d2 34 22 3d d6 68 ac bd fd e7 16 3d 4e 33 11 bc
       0.039601155 -0.08418433 0.036842335 -0.00886233
0002d0 0e a7 02 bd e9 e8 48 3d 44 03 84 bd 3b c2 3d bd
       -0.031897597 0.049050245 -0.06445935 -0.04632781
0002e0 54 66 a6 3c 0b 01 db bb 3a 3b ed 3b f8 c9 c3 bd
       0.020312466 -0.006683474 0.0072397264 -0.09560007
0002f0 16 22 71 bd fe 30 0f 3d 44 cf 97 bd aa 48 a0 bd
       -0.058870398 0.034958832 -0.0741258 -0.078263596
000300 b9 cf 2d 3d 43 54 13 3d 4f d3 4b bd 76 f2 12 bd
       0.042434428 0.03596903 -0.049762066 -0.03587576
000310 1e 67 ed 3b 1c ca 21 bd e9 d4 51 bd 4c cd 9f 3d
       0.0072449585 -0.039499387 -0.051228438 0.07802829
000320 a4 2e b9 bd 08 88 90 3c b0 2d 93 3c c0 78 69 bd
       -0.09042099 0.01764299 0.017966121 -0.05699992
000330 b4 96 1e 3d ed 81 f9 ba 7b fb 6e 3b df e2 32 bc
       0.03871794 -0.0019035913 0.0036465812 -0.010918348
000340 30 b9 c5 bd e0 ac 96 bd 28 e6 8b bd 95 d6 48 3c
       -0.09654462 -0.07357192 -0.06831008 0.012258192
000350 77 ce 4a bc 24 e1 97 3c b6 73 91 bd ed 25 02 bd
       -0.012378327 0.018539973 -0.07102148 -0.03177445
000360 14 9a 05 bd 11 09 53 bd 7d f4 5b bc 1b 9f 83 bd
       -0.032617643 -0.05152232 -0.01342499 -0.06426831
000370 a6 f5 a3 bd 63 3a c6 bc 94 34 c7 bd 9b 72 9d bd
       -0.08005838 -0.024197763 -0.09726825 -0.07687875
000380 dd ed b9 bd 6f 1e 84 bd f3 9c 17 bc d5 80 18 bd
       -0.09078572 -0.06451117 -0.009253728 -0.03723224
000390 3a d3 9e 3a 90 98 b5 39 a6 11 ac 3b e5 5c 93 bd
       0.0012117394 0.00034636678 0.0052511273 -0.071954526
0003a0 a4 a1 be bd 44 74 29 3d c7 2b 96 bd 0a 1f fc bb
       -0.09308174 0.041370645 -0.073325686 -0.00769413
0003b0 36 29 81 3c 79 56 c1 bd 7e 6f d7 bc 07 36 0b 3d
       0.015766721 -0.094403215 -0.02629828 0.03398707
0003c0 f9 92 60 bd d7 30 1a bd 73 1b af bd 70 64 a3 bc
       -0.054827664 -0.037644234 -0.085501574 -0.019945353
0003d0 3a 25 c1 bd 17 e2 a1 bd 43 79 08 3c e0 a8 b6 bd
       -0.094309285 -0.07904451 0.008329692 -0.08918929
0003e0 c2 15 54 bc 0f 4c 8f bd 5e ca 19 3d c0 28 49 3c
       -0.012944641 -0.06996929 0.037546508 0.012277782
0003f0 9b 10 b2 bd 57 33 77 bd c0 34 81 bd 9a 5a 77 bd
       -0.086945735 -0.060351696 -0.063088894 -0.06038914

linear3.bias f4 [150]
000000 64 89 0e 3a 2f 08 b8 bc 44 83 b1 3c 6c 75 0d 3c
       0.0005437343 -0.02246484 0.021669038 0.008633953
000010 6a 1f 8a bd 69 bb a6 bd a4 35 d1 bc 0c e6 b4 bd
       -0.06744273 -0.081412144 -0.025538273 -0.088329405
000020 f0 75 a0 3c 10 a5 c4 3c fb d2 50 3d 0d 3b 9a bd
       0.019587487 0.02400449 0.050982457 -0.07530794
000030 4c 94 8a bd 32 d5 d0 bc c2 84 bc 3c 7f dc c0 3c
       -0.06766567 -0.025492284 0.023012523 0.02354264
000040 b3 e0 1f bd 55 4c 76 3d 1f 1c cc bd 97 c1 b3 3d
       -0.03903265 0.06013139 -0.09966301 0.08777159
000050 06 73 d2 bd 53 be da 3c 45 2f 30 3d de e6 fd 3b
       -0.10275845 0.026702082 0.04301383 0.007748469
000060 0d ca 90 3d dc 2f 8c 3c 7e bf 86 bd 6f cc 13 bd
       0.07069788 0.017112665 -0.06579493 -0.036083635
000070 fe fe 5e bd 57 e2 7b b9 7d 7e 1a 3e 54 3c 81 bd
       -0.0544424 -0.00024021544 0.15087314 -0.06310335
000080 b4 12 b7 bd ab 65 a0 bd 9d 1f 3e bd f6 2d 9e bd
       -0.08939114 -0.078318916 -0.046416868 -0.0772361
000090 8f be bd 3c 2d 29 a4 3d 5a c8 f5 bc 68 11 4f bd
       0.023162154 0.08015666 -0.030002762 -0.05055371
0000a0 5c 04 b2 3c 0b b5 87 3d 11 77 d4 bc e4 18 6d bb
       0.021730594 0.06626328 -0.025935682 -0.0036178166
0000b0 24 a4 87 3c 82 13 86 bd a3 a6 9c bb 65 87 53 bd
       0.01655776 -0.065466896 -0.004780607 -0.051642794
0000c0 6b 56 89 bb 4a 25 5a 3d 17 07 7a bd c9 d3 68 bd
       -0.00419121 0.053258218 -0.061041918 -0.0568426
0000d0 fb a0 37 bd e5 4f 97 3d 77 21 66 3b a2 44 99 3d
       -0.044831257 0.073882855 0.0035115161 0.07483794
0000e0 08 18 b1 3b 13 fb 6a bd 6f 6d 8a 3c c6 63 b3 3c
       0.005404476 -0.05736835 0.016897885 0.021898162
0000f0 0e 6c b0 3c e4 42 3a 3d a6 d2 8f bd 8c 16 29 bd
       0.0215359 0.045473948 -0.070226 -0.041281268
000100 2d 30 54 3d e5 71 0c bc 1c 23 cd 3c fd 6e 70 bc
       0.051803757 -0.008572076 0.025041156 -0.014674899
000110 ad 33 84 bd e9 9f 9f 3c 83 ff 31 bd 90 00 0d 3a
       -0.06455169 0.01948543 -0.043456566 0.0005378807
000120 9a 7b 95 bd 31 dc 0a bd 71 ee bc 3d 12 42 a4 3d
       -0.07298966 -0.033901397 0.092251666 0.080204144
000130 43 fd 1a 3d 5f d0 24 3d bd 71 86 bc 34 4c 8d bd
       0.037839185 0.04023778 -0.016411657 -0.068993
000140 0c c4 ca 3d 90 3c e7 bc 34 f2 62 3d 7d cf 8d bd
       0.09900674 -0.02822712 0.055406764 -0.06924341
000150 6f 75 9b 3d 5a 2e cb bc 94 36 7d 3d d4 d0 7b bd
       0.07590758 -0.024802376 0.061819628 -0.06147845
000160 0e aa ff 3c 71 1c c6 3b 13 96 f3 3d bc 00 4d bd
       0.031209018 0.006045871 0.11893859 -0.05004953
000170 a1 8a d2 bc 4e cd 03 bd 2d c4 46 bd e9 03 a6 bd
       -0.025700869 -0.032178216 -0.04852693 -0.081062146
000180 27 c7 c3 bc 9d 59 14 bc a7 af d3 3d 12 c7 80 3d
       -0.023898674 -0.009054569 0.103362374 0.0628797
000190 0d 41 37 3c 26 f5 71 bd 94 9b cd bc 7a cd 6e bd
       0.011184943 -0.059071682 -0.0250986 -0.058301426
0001a0 05 92 5c 3b f7 23 c6 bb 2f a7 6b bc 5a fd f0 3b
       0.003365637 -0.006046768 -0.014383121 0.0073544206
0001b0 da 2e bd bd ac 58 07 bc f1 49 53 3d b3 d6 27 bd
       -0.09237452 -0.008260887 0.051584188 -0.040976238
0001c0 65 48 cc 3d 26 91 8f bd 6d 88 e3 3c 66 96 ec 3b
       0.09974746 -0.07010107 0.027775014 0.0072200773
0001d0 ee 24 8c b9 0c 2b 8c bc 4d 86 83 bd 4c e5 67 bd
       -0.00026730396 -0.01711037 -0.064221 -0.05661516
0001e0 35 3b 95 bd ef 9c ec bc c3 4a c9 bd d0 ab df 3d
       -0.072866835 -0.028883426 -0.09828713 0.109214425
0001f0 ae b8 bc bd 74 5f fe ba 61 e8 ef bc e7 bb 06 bd
       -0.09214912 -0.0019407109 -0.029285612 -0.03289404
000200 64 45 46 3d 0f 1a 9e bd 48 ef 38 bd 51 62 80 3d
       0.04840602 -0.07719814 -0.04515007 0.06268752
000210 72 07 8a bd ef dd 1d bd ea da 3c 3d c7 1b bd 3d
       -0.06739701 -0.03854173 0.04610721 0.09233814
000220 c5 db 89 bd ee 8d 8f bd 3d f5 8d 3c 31 83 ad 3d
       -0.06731371 -0.07009493 0.017328853 0.084722884
000230 dc de 3a 3d 9a 5c d3 bc ff c0 86 bd e7 95 64 bd
       0.04562269 -0.025800992 -0.0657978 -0.05580702
000240 52 b5 12 bd a7 65 a0 3d 39 b0 1e bd 94 4b 34 bd
       -0.03581745 0.07831889 -0.038742278 -0.04401739
000250 cc 7a 11 bd 39 94 4e bc
       -0.0355175 -0.012608581

linear4.weight f4 [15, 150]
000000 98 3b 8a bc 89 ae ea bc f7 cc bb bd 9c df 9a bd
       -0.01687412 -0.028647678 -0.09169953 -0.07562181
000010 aa 26 aa 3c 5d f5 94 bd 44 8a 47 bd dc 9f ac bd
       0.02077039 -0.07273362 -0.048715845 -0.08428928
000020 78 70 59 bd a6 23 92 bd 3e 8e 55 3d 20 93 d7 3b
       -0.053085774 -0.07135706 0.052137606 0.006578818
000030 67 ab c1 bc ee a4 c7 bd 33 a9 e5 bc 70 5f 9a bd
       -0.023641301 -0.09748255 -0.028034782 -0.075377345
000040 5b ec 9f bb 1d bb b2 bd 6e d3 bd bd 2d 6b 01 3e
       -0.0048804707 -0.08727095 -0.09268843 0.1263854
000050 bd 6c 0c 3d d7 54 a0 3d ed db 5a 3b 19 7a 0c 3d
       0.03428339 0.07828682 0.0033395246 0.03429613
000060 af 7e 8a bc 95 13 e4 bd 96 7a 62 bd e5 ac 8a bc
       -0.01690611 -0.111365475 -0.05529269 -0.016928146
000070 1d ab d1 bd 71 ed 93 3a cb 3c 47 3d 78 b8 55 bd
       -0.102377154 0.0011285973 0.04864196 -0.052177876
000080 74 09 69 bb 9c e2 59 bd a4 8e 81 bd 28 c0 07 3d
       -0.0035558613 -0.053194627 -0.06326035 0.03314224
000090 94 c8 36 ba 4a 67 38 3d 02 f0 9d bc ac 8a e4 3c
       -0.00069726375 0.04502038 -0.019279484 0.027898155
0000a0 f6 8d 37 bd 19 89 7b bc 6c ee d8 bc 5f 45 32 bc
       -0.04481312 -0.015352511 -0.026480876 -0.010880797
0000b0 14 0e 7c 3d f0 b2 8c 3c 31 d3 bc bd a5 59 8b bd
       0.061536863 0.017175168 -0.09219969 -0.06804208
0000c0 b1 de 0f 3e f7 66 e6 bc 98 b0 1d bd 33 ef 06 3e
       0.14049794 -0.02812527 -0.03849849 0.13177185
0000d0 bc cb 6a bc 38 2a 0b bc 65 e5 95 bd 39 de 33 3c
       -0.014330801 -0.008493952 -0.07319144 0.010978275
0000e0 3c 01 bc bc 04 ed 5f 3d 9f 8f e2 bd c8 0e a5 bd
       -0.022949807 0.054669395 -0.1106255 -0.0805946
0000f0 64 b1 2a bd 59 29 0f 3d 12 c2 45 bd f4 c0 a9 bd
       -0.04167308 0.03495154 -0.048280783 -0.08288756
000100 60 16 34 3d 46 1f 8b bc 4d 9b ed bd 17 94 ac bc
       0.04396665 -0.016982686 -0.11601887 -0.021066708
000110 c4 31 83 bd 37 cb c9 3d d6 c8 ac bd 33 36 8f ba
       -0.064059764 0.09853213 -0.08436744 -0.0010926187
000120 16 3a c6 bd 5b 73 f1 38 67 2f ea 3a 80 13 48 3d
       -0.09679048 0.00011513262 0.001786691 0.04884672
000130 1d ee 93 bd 98 64 2f bb ec 51 d2 bd 35 4d 10 bd
       -0.07223151 -0.002676284 -0.102695316 -0.03522988
000140 08 8c 81 3d 10 2b 9b 3c ba 22 b1 3d 10 2a c9 bd
       0.06325537 0.018941432 0.08649202 -0.09822476
000150 86 54 cc 3d 36 52 ba 3d 97 52 d2 3c 2a 48 0b bc
       0.09977059 0.09097712 0.025674148 -0.008501092
000160 e7 4f ac bd 94 64 0b bd aa d2 2c 3d a4 43 1b 3c
       -0.08413678 -0.034031466 0.042193092 0.009476576
000170 6d 99 86 bc 65 da f8 bc 67 98 09 bd 98 07 52 3c
       -0.016430581 -0.030377576 -0.033592608 0.012819193
000180 5b 7d 96 bd ff 8c ab 3d 38 ff 11 3d 3e f7 a2 3d
       -0.073481284 0.08376502 0.035643786 0.07957314
000190 f4 6a 89 3b 48 3f 6c 3c ba 46 b0 bc 51 b0 dc 3b
       0.004193658 0.014419384 -0.0215181 0.0067348857
0001a0 81 eb 16 bd 56 79 36 bd f1 ae 12 bd 44 b1 df 3d
       -0.036845688 -0.04454931 -0.03581137 0.109224826
0001b0 9d db a6 bd 7b 96 82 bd c7 37 23 3d 20 ae c1 bd
       -0.08147357 -0.06376358 0.039848115 -0.0945704
0001c0 61 10 b9 3b 78 81 7e bd 94 84 a9 3d f2 34 0d 3d
       0.0056477045 -0.06213519 0.082772404 0.03447432
0001d0 8a c1 75 bd 02 a1 b8 bc f4 a9 85 bc 99 8a 5f bd
       -0.059999026 -0.022537712 -0.016316392 -0.054575536
0001e0 ac 56 d8 bd 06 d6 d4 bb 31 ab 0d 3d 7c 2c d1 bd
       -0.10563406 -0.00649524 0.03458709 -0.10213563
0001f0 c0 bf 2a 3c 0f 80 ee bd 66 ca 68 bc b3 89 ae 3a
       0.010421693 -0.11645519 -0.014208412 0.0013316184
000200 c4 c1 8b bd 50 55 ed 3c d3 98 d7 3d 2c 00 fc bc
       -0.06824067 0.028971344 0.10527196 -0.0307618
000210 9c b4 d2 3c e0 82 73 bd 4e d4 15 bd 8a 3f 96 bd
       0.025720887 -0.059450984 -0.036579423 -0.07336338
000220 ea 0f 08 bc 35 37 37 bc 20 ff 4e 3c c9 87 ae bb
       -0.008304575 -0.011182596 0.012634069 -0.0053262454
000230 df 5b 12 bd 9b 39 8d bd 24 27 b9 bd 60 63 aa 3c
       -0.035732146 -0.06895753 -0.090406686 0.020799339
000240 0e 14 98 bd 74 7b 97 bd f6 11 1b 3d 73 5a a0 bd
       -0.074257 -0.07396594 0.037858926 -0.07829752
000250 a5 44 b7 3c 7c 20 da bd 21 44 13 3e c3 41 96 bc
       0.0223716 -0.10650727 0.14381458 -0.018341905
000260 51 47 75 3b 72 c2 cb bd b6 a8 b0 bd ae 8b bb bc
       0.003742654 -0.09949197 -0.08625929 -0.022893753
000270 95 80 e2 bb 50 b9 c2 bd 96 c6 01 3e 8f 1d 26 3d
       -0.006912301 -0.09508002 0.12673411 0.040555533
000280 20 a0 d9 bc 0b 62 1d bd 4f 77 ab bc 40 65 93 bd
       -0.026565611 -0.03842358 -0.020930914 -0.07197046
000290 17 e0 81 bd 58 26 9b bd 86 a7 5b 3d 65 db 10 3e
       -0.0634157 -0.07575673 0.05362656 0.14146192
0002a0 85 e4 37 bb 40 d6 b2 bd a8 f9 dd 3a 2f 4c 2e 3d
       -0.0028059792 -0.08732271 0.0016935365 0.042553123
0002b0 9b 9d 64 bd c8 8a dc bd 32 01 d8 3c af 0c 8e bd
       -0.055814367 -0.10768658 0.026367757 -0.06936013
0002c0 02 2b 49 bd 78 fe f8 3c a0 ed 6f 3c 75 4a da bd
       -0.04911328 0.030394778 0.014644057 -0.10658733
0002d0 fc e4 85 bd 4a 5d b6 3c cd 7e ab bd 64 26 ca bd
       -0.06537816 0.02226128 -0.08373795 -0.09870604
0002e0 77 88 82 bd cf f0 15 bd 57 b9 98 bd 31 dd cd bd
       -0.06373685 -0.036606606 -0.07457226 -0.100519545
0002f0 73 9b d4 bd 80 3a 95 bc 6d 8e 2f bc 2c 7c af 3d
       -0.10381212 -0.018216372 -0.010715109 0.08568606
000300 f3 01 fd bd 20 7b 68 3c b1 03 97 3c e1 77 2d bb
       -0.123538874 0.014189512 0.018434377 -0.0026469158
000310 90 cc 1a 3e f6 88 3e bd df 6e 34 3d 21 7a 93 bd
       0.15117097 -0.046517335 0.044051047 -0.072010286
000320 9e 90 ca bd 17 c4 b9 3d 05 0f 7a bd 14 f3 b7 bd
       -0.09890865 0.09070604 -0.06104948 -0.0898191
000330 8d 84 d7 3d 31 ea cd bd b0 e3 b7 bd d4 ff bc bd
       0.10523329 -0.10054434 -0.08978975 -0.09228483
000340 e8 47 e5 bc ea ce 90 3d e4 a7 03 bc ee 3c c0 3b
       -0.02798839 0.07070716 -0.008035634 0.0058666384
000350 3b fe e2 bc 20 0a 0a bd 12 4c bd bd fe c5 52 bd
       -0.027709117 -0.033701062 -0.09243025 -0.05145835
000360 16 8f 26 bd b9 c2 15 bc e4 35 d6 bd 59 20 4c bd
       -0.0406638 -0.009140664 -0.104594976 -0.049835537
000370 28 b9 c1 bd 7a 0d c1 bd 70 53 bd 3c e8 19 e6 bd
       -0.09459144 -0.094263986 0.023111075 -0.1123541
000380 b3 05 dc bc 3a d2 f5 3d 32 b5 04 3e 05 35 57 3e
       -0.026858186 0.12002988 0.12959746 0.21016319
000390 92 98 d5 bd 1a f3 f6 bd 41 a1 21 3e 8a b1 69 bb
       -0.10429491 -0.12058087 0.1578417 -0.00356588
0003a0 c6 f6 80 bd 38 e7 0c 3b 7d 39 b6 bc 33 58 ab 3b
       -0.06297068 0.0021500122 -0.02224421 0.00522902
0003b0 fb d1 cc 3b b7 6f cf bd 99 09 e5 bd 46 8f 0c 3d
       0.0062506176 -0.1012873 -0.11183471 0.034316324
0003c0 5c 7c 35 3b 67 94 e0 bd 00 e2 fd bd d2 26 6e bd
       0.0027692532 -0.109658055 -0.12396622 -0.05814249
0003d0 1b 34 04 3e 4c c4 51 bd 05 e2 1d bd ec b1 c3 bd
       0.12910502 -0.051212594 -0.038545627 -0.0955542
0003e0 0e 15 81 bd 51 49 ad 3c b7 42 1e 3c f8 9e 79 bd
       -0.06302844 0.021153124 0.009659461 -0.06094262
0003f0 ea 91 e8 3c ba ff 55 bd f3 5e b5 bd 1a 9a 86 3c
       0.02838989 -0.052245833 -0.08856001 0.016430903

linear4.bias f4 [15]
000000 0a 8d c5 bc 10 6f 0d 3d ff 63 e3 bd 76 30 de 3d
       -0.024115104 0.034529746 -0.11103057 0.10849087
000010 5d c0 06 bd ec b4 0f bd 8e c5 38 3e f9 d3 63 3d
       -0.032898296 -0.03508465 0.18044111 0.055622075
000020 63 ad ac 3e a2 3d 48 3d a9 13 85 3e 7f 27 e5 bc
       0.33726034 0.048886903 0.25991562 -0.027972935
000030 59 c5 38 3e 9d e8 18 3d 0a 07 ba bc
       0.18044032 0.037331212 -0.022708435

output.weight f4 [4, 15]
000000 93 93 50 be 9f d8 d0 3e 94 e0 34 3e 66 87 3d 3f
       -0.20368795 0.4079027 0.17663795 0.74034727
000010 88 43 75 3d 5d 54 8c 3e 91 80 b5 bd 6d 31 87 3e
       0.059878856 0.27408114 -0.08862413 0.26404896
000020 af 45 34 bf e8 ae 09 bf bc 9e ad be be db 63 be
       -0.7041883 -0.5378251 -0.33910167 -0.22251794
000030 3a 5e dd 3e 86 6f 4c be 1f 78 79 3e e3 70 e0 be
       0.43235952 -0.19964418 0.24362229 -0.43836126
000040 40 7a b0 3e 78 52 21 3e 7a 3c 80 3d de 81 4d be
       0.3446827 0.15754116 0.06261535 -0.20069072
000050 ad 35 f9 be b4 8c c5 3e 95 82 01 3f 06 09 a3 be
       -0.48673764 0.3858391 0.5058988 -0.31842822
000060 42 22 81 3e 60 0a d0 bc 4b 2c 7b be dd 7d 4e 3e
       0.2522145 -0.025395572 -0.24528615 0.201652
000070 5a 63 9a be ec 6f 74 be 18 ef 0d be 64 74 9f be
       -0.30153924 -0.2387082 -0.13860738 -0.31143486
000080 52 fe 5c be 72 51 c0 3b c7 90 d9 3d 35 e4 1c 3e
       -0.2158139 0.005869084 0.10623317 0.15321429
000090 9a bb 5a 3f bc b5 bf be f2 11 98 be 6f c8 b2 bd
       0.8544251 -0.3744334 -0.2970119 -0.08729636
0000a0 68 3e 43 be 49 af e1 3c 4b 77 d1 3e 74 25 c1 be
       -0.19066775 0.027549403 0.40911326 -0.37723887
0000b0 df 03 51 be 17 7f 3d 3e 05 3e a5 3e fa 65 18 bd
       -0.20411633 0.18505512 0.3227388 -0.037206627
0000c0 25 07 60 be f0 3d 9c be be 27 b5 3e 8e c1 28 3f
       -0.21877725 -0.30516005 0.35381883 0.6592034
0000d0 a2 ed c2 bc 02 85 51 be 40 ee f5 3d e5 09 f3 be
       -0.023794953 -0.20460895 0.12008333 -0.47468486
0000e0 67 55 c6 bd 35 ea 29 be 58 79 58 be 3f 3b 21 3e
       -0.09684258 -0.16593249 -0.21140039 0.15745257

output.bias f4 [4]
000000 63 66 05 bf f7 7c 81 bf cd ac 50 bf 90 f9 82 bf
       -0.52109355 -1.0116261 -0.81513673 -1.023241

__robj__ u1 [497172]
000000 58 0a 00 00 00 03 00 04 03 03 00 03 05 00 00 00
       88 10 0 0 0 3 0 4 3 3 0 3 5 0 0 0
000010 00 05 55 54 46 2d 38 00 02 07 03 00 00 04 02 00
       0 5 85 84 70 45 56 0 2 7 3 0 0 4 2 0
000020 00 00 01 00 04 00 09 00 00 00 06 73 72 63 72 65
       0 0 1 0 4 0 9 0 0 0 6 115 114 99 114 101
000030 66 00 00 03 0d 00 00 00 08 00 00 00 0b 00 00 00
       102 0 0 3 13 0 0 0 8 0 0 0 11 0 0 0
000040 0d 00 00 00 16 00 00 00 03 00 00 00 0d 00 00 00
       13 0 0 0 22 0 0 0 3 0 0 0 13 0 0 0
000050 03 00 00 00 0b 00 00 00 16 00 00 04 02 00 00 00
       3 0 0 0 11 0 0 0 22 0 0 4 2 0 0 0
000060 01 00 04 00 09 00 00 00 07 73 72 63 66 69 6c 65
       1 0 4 0 9 0 0 0 7 115 114 99 102 105 108 101
000070 00 00 00 04 00 00 00 00 00 00 00 f2 00 00 04 02
       0 0 0 4 0 0 0 0 0 0 0 242 0 0 4 2
000080 00 00 00 01 00 04 00 09 00 00 00 05 6c 69 6e 65
       0 0 0 1 0 4 0 9 0 0 0 5 108 105 110 101
000090 73 00 00 00 10 00 00 00 01 00 04 00 09 00 00 02
       115 0 0 0 16 0 0 0 1 0 4 0 9 0 0 2
0000a0 6b 6d 6c 70 5f 6d 6f 64 65 6c 20 3c 2d 20 6e 6e
       107 109 108 112 95 109 111 100 101 108 32 60 45 32 110 110
0000b0 5f 6d 6f 64 75 6c 65 28 0a 20 20 69 6e 69 74 69
       95 109 111 100 117 108 101 40 10 32 32 105 110 105 116 105
0000c0 61 6c 69 7a 65 20 3d 20 66 75 6e 63 74 69 6f 6e
       97 108 105 122 101 32 61 32 102 117 110 99 116 105 111 110
0000d0 28 29 20 7b 0a 20 20 20 20 73 65 6c 66 24 6c 69
       40 41 32 123 10 32 32 32 32 115 101 108 102 36 108 105
0000e0 6e 65 61 72 31 20 3c 2d 20 6e 6e 5f 6c 69 6e 65
       110 101 97 114 49 32 60 45 32 110 110 95 108 105 110 101
0000f0 61 72 28 4e 76 61 72 2e 78 2c 20 32 30 30 29 0a
       97 114 40 78 118 97 114 46 120 44 32 50 48 48 41 10
